2021-01-10 19:20:11.171295: I tensorflow/core/platform/cpu_feature_guard.cc:137] Your CPU supports instructions that this TensorFlow binary was not compiled to use: SSE4.1 SSE4.2
__________________________________________________________________________________________________
Layer (type)                    Output Shape         Param #     Connected to                     
==================================================================================================
v1 (InputLayer)                 (None, 768)          0                                            
__________________________________________________________________________________________________
v2 (InputLayer)                 (None, 768)          0                                            
__________________________________________________________________________________________________
dense_1 (Dense)                 (None, 100)          76900       v1[0][0]                         
__________________________________________________________________________________________________
dense_2 (Dense)                 (None, 100)          76900       v2[0][0]                         
__________________________________________________________________________________________________
dropout_1 (Dropout)             (None, 100)          0           dense_1[0][0]                    
__________________________________________________________________________________________________
dropout_2 (Dropout)             (None, 100)          0           dense_2[0][0]                    
__________________________________________________________________________________________________
doc (InputLayer)                (None, 10)           0                                            
__________________________________________________________________________________________________
concatenate_1 (Concatenate)     (None, 200)          0           dropout_1[0][0]                  
                                                                 dropout_2[0][0]                  
__________________________________________________________________________________________________
dense_3 (Dense)                 (None, 5)            55          doc[0][0]                        
__________________________________________________________________________________________________
concatenate_2 (Concatenate)     (None, 205)          0           concatenate_1[0][0]              
                                                                 dense_3[0][0]                    
__________________________________________________________________________________________________
dense_4 (Dense)                 (None, 1)            206         concatenate_2[0][0]              
==================================================================================================
Total params: 154,061
Trainable params: 154,061
Non-trainable params: 0
__________________________________________________________________________________________________
loaded 388368 qrel pair entries
loaded 388368 topic<->doc histogram entries
idf_input: (388368, 25, 1)
…
